VGG16 architecture with no rescaling

Model: "sequential"
_________________________________________________________________
Layer (type)                 Output Shape              Param #   
=================================================================
conv2d (Conv2D)              (None, 224, 224, 64)      1792      
_________________________________________________________________
conv2d_1 (Conv2D)            (None, 224, 224, 64)      36928     
_________________________________________________________________
max_pooling2d (MaxPooling2D) (None, 112, 112, 64)      0         
_________________________________________________________________
conv2d_2 (Conv2D)            (None, 112, 112, 128)     73856     
_________________________________________________________________
conv2d_3 (Conv2D)            (None, 112, 112, 128)     147584    
_________________________________________________________________
max_pooling2d_1 (MaxPooling2 (None, 56, 56, 128)       0         
_________________________________________________________________
conv2d_4 (Conv2D)            (None, 56, 56, 256)       295168    
_________________________________________________________________
conv2d_5 (Conv2D)            (None, 56, 56, 256)       590080    
_________________________________________________________________
conv2d_6 (Conv2D)            (None, 56, 56, 256)       590080    
_________________________________________________________________
max_pooling2d_2 (MaxPooling2 (None, 28, 28, 256)       0         
_________________________________________________________________
conv2d_7 (Conv2D)            (None, 28, 28, 512)       1180160   
_________________________________________________________________
conv2d_8 (Conv2D)            (None, 28, 28, 512)       2359808   
_________________________________________________________________
conv2d_9 (Conv2D)            (None, 28, 28, 512)       2359808   
_________________________________________________________________
max_pooling2d_3 (MaxPooling2 (None, 14, 14, 512)       0         
_________________________________________________________________
conv2d_10 (Conv2D)           (None, 14, 14, 512)       2359808   
_________________________________________________________________
conv2d_11 (Conv2D)           (None, 14, 14, 512)       2359808   
_________________________________________________________________
conv2d_12 (Conv2D)           (None, 14, 14, 512)       2359808   
_________________________________________________________________
max_pooling2d_4 (MaxPooling2 (None, 7, 7, 512)         0         
_________________________________________________________________
flatten (Flatten)            (None, 25088)             0         
_________________________________________________________________
dense (Dense)                (None, 4096)              102764544 
_________________________________________________________________
dense_1 (Dense)              (None, 4096)              16781312  
_________________________________________________________________
dense_2 (Dense)              (None, 8)                 32776     
=================================================================
Total params: 134,293,320
Trainable params: 134,293,320
Non-trainable params: 0
_________________________________________________________________

Epoch 1/10
34/34 [==============================] - 382s 8s/step - loss: 2774.7002 - accuracy: 0.3060 - val_loss: 1.9283 - val_accuracy: 0.3709
Epoch 2/10
34/34 [==============================] - 17s 495ms/step - loss: 1.9447 - accuracy: 0.3594 - val_loss: 1.9006 - val_accuracy: 0.3709
…
34/34 [==============================] - 17s 501ms/step - loss: 1.9086 - accuracy: 0.3509 - val_loss: 1.8652 - val_accuracy: 0.3709
Epoch 9/10
34/34 [==============================] - 17s 497ms/step - loss: 1.8759 - accuracy: 0.3706 - val_loss: 1.8666 - val_accuracy: 0.3709
Epoch 10/10
34/34 [==============================] - 17s 496ms/step - loss: 1.8800 - accuracy: 0.3637 - val_loss: 1.8665 - val_accuracy: 0.3709



simple
Model: "sequential_2"
_________________________________________________________________
Layer (type)                 Output Shape              Param #   
=================================================================
conv2d_6 (Conv2D)            (None, 222, 222, 32)      896       
_________________________________________________________________
max_pooling2d_4 (MaxPooling2 (None, 111, 111, 32)      0         
_________________________________________________________________
conv2d_7 (Conv2D)            (None, 109, 109, 64)      18496     
_________________________________________________________________
max_pooling2d_5 (MaxPooling2 (None, 54, 54, 64)        0         
_________________________________________________________________
conv2d_8 (Conv2D)            (None, 52, 52, 64)        36928     
_________________________________________________________________
flatten_2 (Flatten)          (None, 173056)            0         
_________________________________________________________________
dense_4 (Dense)              (None, 64)                11075648  
_________________________________________________________________
dense_5 (Dense)              (None, 8)                 520       
=================================================================
Total params: 11,132,488
Trainable params: 11,132,488
Non-trainable params: 0
_________________________________________________________________


Epoch 1/10
34/34 [==============================] - 312s 7s/step - loss: 125.0836 - accuracy: 0.2370 - val_loss: 2.0654 - val_accuracy: 0.3289
Epoch 2/10
34/34 [==============================] - 4s 106ms/step - loss: 2.1115 - accuracy: 0.3787 - val_loss: 2.0628 - val_accuracy: 0.2561
…
